…
[2025-11-25 07:44:28,296][253153] Worker 3 uses CPU cores [48, 49, 50, 51, 52, 53, 54, 55, 56, 57, 58, 59, 60, 61, 62, 63]
[2025-11-25 07:44:28,307][253157] Worker 6 uses CPU cores [96, 97, 98, 99, 100, 101, 102, 103, 104, 105, 106, 107, 108, 109, 110, 111]
[2025-11-25 07:44:28,315][253150] Num visible devices: 1
[2025-11-25 07:44:28,340][253137] Convolutional layer output size: 7744
[2025-11-25 07:44:28,618][253137] Created Actor Critic model with architecture:
[2025-11-25 07:44:28,618][253137] ActorCriticSharedWeights(
  (obs_normalizer): ObservationNormalizer()
  (encoder): ResnetEncoder(
    (conv_head): Sequential(
      (0): Conv2d(2, 64, kernel_size=(3, 3), stride=(1, 1), padding=(1, 1))
      (1): ResBlock(
        (res_block_core): Sequential(
          (0): ReLU(inplace=True)
          (1): Conv2d(64, 64, kernel_size=(3, 3), stride=(1, 1), padding=(1, 1))
          (2): ReLU(inplace=True)
          (3): Conv2d(64, 64, kernel_size=(3, 3), stride=(1, 1), padding=(1, 1))
        )
      )
      (2): ResBlock(
        (res_block_core): Sequential(
          (0): ReLU(inplace=True)
          (1): Conv2d(64, 64, kernel_size=(3, 3), stride=(1, 1), padding=(1, 1))
          (2): ReLU(inplace=True)
          (3): Conv2d(64, 64, kernel_size=(3, 3), stride=(1, 1), padding=(1, 1))
        )
      )
      (3): ResBlock(
        (res_block_core): Sequential(
          (0): ReLU(inplace=True)
          (1): Conv2d(64, 64, kernel_size=(3, 3), stride=(1, 1), padding=(1, 1))
          (2): ReLU(inplace=True)
          (3): Conv2d(64, 64, kernel_size=(3, 3), stride=(1, 1), padding=(1, 1))
        )
      )
      (4): ResBlock(
        (res_block_core): Sequential(
          (0): ReLU(inplace=True)
          (1): Conv2d(64, 64, kernel_size=(3, 3), stride=(1, 1), padding=(1, 1))
          (2): ReLU(inplace=True)
          (3): Conv2d(64, 64, kernel_size=(3, 3), stride=(1, 1), padding=(1, 1))
        )
      )
      (5): ResBlock(
        (res_block_core): Sequential(
          (0): ReLU(inplace=True)
          (1): Conv2d(64, 64, kernel_size=(3, 3), stride=(1, 1), padding=(1, 1))
          (2): ReLU(inplace=True)
          (3): Conv2d(64, 64, kernel_size=(3, 3), stride=(1, 1), padding=(1, 1))
        )
      )
      (6): ResBlock(
        (res_block_core): Sequential(
          (0): ReLU(inplace=True)
          (1): Conv2d(64, 64, kernel_size=(3, 3), stride=(1, 1), padding=(1, 1))
          (2): ReLU(inplace=True)
          (3): Conv2d(64, 64, kernel_size=(3, 3), stride=(1, 1), padding=(1, 1))
        )
      )
      (7): ResBlock(
        (res_block_core): Sequential(
          (0): ReLU(inplace=True)
          (1): Conv2d(64, 64, kernel_size=(3, 3), stride=(1, 1), padding=(1, 1))
          (2): ReLU(inplace=True)
          (3): Conv2d(64, 64, kernel_size=(3, 3), stride=(1, 1), padding=(1, 1))
        )
      )
      (8): ResBlock(
        (res_block_core): Sequential(
          (0): ReLU(inplace=True)
          (1): Conv2d(64, 64, kernel_size=(3, 3), stride=(1, 1), padding=(1, 1))
          (2): ReLU(inplace=True)
          (3): Conv2d(64, 64, kernel_size=(3, 3), stride=(1, 1), padding=(1, 1))
        )
      )
      (9): ReLU(inplace=True)
    )
    (extra_linear): Sequential(
      (0): Linear(in_features=7744, out_features=512, bias=True)
      (1): ReLU(inplace=True)
    )
  )
  (core): ModelCoreRNN(
    (core): GRU(512, 256)
  )
  (decoder): MlpDecoder(
    (mlp): Identity()
  )
  (critic_linear): Linear(in_features=256, out_features=1, bias=True)
  (action_parameterization): ActionParameterizationDefault(
    (distribution_linear): Linear(in_features=256, out_features=5, bias=True)
  )
)
[2025-11-25 07:44:44,691][253137] Using optimizer <class 'torch.optim.adam.Adam'>
[2025-11-25 07:44:44,692][253137] No checkpoints found
[2025-11-25 07:44:44,692][253137] Did not load from checkpoint, starting from scratch!
[2025-11-25 07:44:44,692][253137] Initialized policy 0 weights for model version 0
[2025-11-25 07:44:44,698][253137] LearnerWorker_p0 finished initialization!
…
